Namespace(exp_name='GDANet', batch_size=16, test_batch_size=8, epochs=42, use_sgd=False, scheduler='step', step=40, lr=0.003, momentum=0.9, no_cuda=False, manual_seed=1, eval=False, num_points=2880, resume=False, model_type='insiou')
Using GPU
GDANet(
  (bn1): BatchNorm2d(64, eps=1e-05, momentum=0.1, affine=True, track_running_stats=True)
  (bn11): BatchNorm2d(64, eps=1e-05, momentum=0.1, affine=True, track_running_stats=True)
  (bn12): BatchNorm1d(64, eps=1e-05, momentum=0.1, affine=True, track_running_stats=True)
  (bn2): BatchNorm2d(64, eps=1e-05, momentum=0.1, affine=True, track_running_stats=True)
  (bn21): BatchNorm2d(64, eps=1e-05, momentum=0.1, affine=True, track_running_stats=True)
  (bn22): BatchNorm1d(64, eps=1e-05, momentum=0.1, affine=True, track_running_stats=True)
  (bn3): BatchNorm2d(128, eps=1e-05, momentum=0.1, affine=True, track_running_stats=True)
  (bn31): BatchNorm2d(128, eps=1e-05, momentum=0.1, affine=True, track_running_stats=True)
  (bn32): BatchNorm1d(128, eps=1e-05, momentum=0.1, affine=True, track_running_stats=True)
  (bn4): BatchNorm1d(512, eps=1e-05, momentum=0.1, affine=True, track_running_stats=True)
  (bnc): BatchNorm1d(64, eps=1e-05, momentum=0.1, affine=True, track_running_stats=True)
  (bn5): BatchNorm1d(256, eps=1e-05, momentum=0.1, affine=True, track_running_stats=True)
  (bn6): BatchNorm1d(256, eps=1e-05, momentum=0.1, affine=True, track_running_stats=True)
  (bn7): BatchNorm1d(128, eps=1e-05, momentum=0.1, affine=True, track_running_stats=True)
  (conv1): Sequential(
    (0): Conv2d(9, 64, kernel_size=(1, 1), stride=(1, 1))
    (1): BatchNorm2d(64, eps=1e-05, momentum=0.1, affine=True, track_running_stats=True)
  )
  (conv11): Sequential(
    (0): Conv2d(64, 64, kernel_size=(1, 1), stride=(1, 1))
    (1): BatchNorm2d(64, eps=1e-05, momentum=0.1, affine=True, track_running_stats=True)
  )
  (conv12): Sequential(
    (0): Conv1d(128, 64, kernel_size=(1,), stride=(1,))
    (1): BatchNorm1d(64, eps=1e-05, momentum=0.1, affine=True, track_running_stats=True)
  )
  (conv2): Sequential(
    (0): Conv2d(134, 64, kernel_size=(1, 1), stride=(1, 1))
    (1): BatchNorm2d(64, eps=1e-05, momentum=0.1, affine=True, track_running_stats=True)
  )
  (conv21): Sequential(
    (0): Conv2d(64, 64, kernel_size=(1, 1), stride=(1, 1))
    (1): BatchNorm2d(64, eps=1e-05, momentum=0.1, affine=True, track_running_stats=True)
  )
  (conv22): Sequential(
    (0): Conv1d(128, 64, kernel_size=(1,), stride=(1,))
    (1): BatchNorm1d(64, eps=1e-05, momentum=0.1, affine=True, track_running_stats=True)
  )
  (conv3): Sequential(
    (0): Conv2d(262, 128, kernel_size=(1, 1), stride=(1, 1))
    (1): BatchNorm2d(128, eps=1e-05, momentum=0.1, affine=True, track_running_stats=True)
  )
  (conv31): Sequential(
    (0): Conv2d(128, 128, kernel_size=(1, 1), stride=(1, 1))
    (1): BatchNorm2d(128, eps=1e-05, momentum=0.1, affine=True, track_running_stats=True)
  )
  (conv32): Sequential(
    (0): Conv1d(128, 128, kernel_size=(1,), stride=(1,))
    (1): BatchNorm1d(128, eps=1e-05, momentum=0.1, affine=True, track_running_stats=True)
  )
  (conv4): Sequential(
    (0): Conv1d(256, 512, kernel_size=(1,), stride=(1,))
    (1): BatchNorm1d(512, eps=1e-05, momentum=0.1, affine=True, track_running_stats=True)
  )
  (convc): Sequential(
    (0): Conv1d(16, 64, kernel_size=(1,), stride=(1,))
    (1): BatchNorm1d(64, eps=1e-05, momentum=0.1, affine=True, track_running_stats=True)
  )
  (conv5): Sequential(
    (0): Conv1d(832, 256, kernel_size=(1,), stride=(1,))
    (1): BatchNorm1d(256, eps=1e-05, momentum=0.1, affine=True, track_running_stats=True)
  )
  (dp1): Dropout(p=0.4, inplace=False)
  (conv6): Sequential(
    (0): Conv1d(256, 256, kernel_size=(1,), stride=(1,))
    (1): BatchNorm1d(256, eps=1e-05, momentum=0.1, affine=True, track_running_stats=True)
  )
  (dp2): Dropout(p=0.4, inplace=False)
  (conv7): Sequential(
    (0): Conv1d(256, 128, kernel_size=(1,), stride=(1,))
    (1): BatchNorm1d(128, eps=1e-05, momentum=0.1, affine=True, track_running_stats=True)
  )
  (conv8): Conv1d(128, 6, kernel_size=(1,), stride=(1,))
  (SGCAM_1s): SGCAM(
    (g): Conv1d(64, 32, kernel_size=(1,), stride=(1,))
    (W): Sequential(
      (0): Conv1d(32, 64, kernel_size=(1,), stride=(1,))
      (1): BatchNorm1d(64, eps=1e-05, momentum=0.1, affine=True, track_running_stats=True)
    )
    (theta): Conv1d(64, 32, kernel_size=(1,), stride=(1,))
    (phi): Conv1d(64, 32, kernel_size=(1,), stride=(1,))
  )
  (SGCAM_1g): SGCAM(
    (g): Conv1d(64, 32, kernel_size=(1,), stride=(1,))
    (W): Sequential(
      (0): Conv1d(32, 64, kernel_size=(1,), stride=(1,))
      (1): BatchNorm1d(64, eps=1e-05, momentum=0.1, affine=True, track_running_stats=True)
    )
    (theta): Conv1d(64, 32, kernel_size=(1,), stride=(1,))
    (phi): Conv1d(64, 32, kernel_size=(1,), stride=(1,))
  )
  (SGCAM_2s): SGCAM(
    (g): Conv1d(64, 32, kernel_size=(1,), stride=(1,))
    (W): Sequential(
      (0): Conv1d(32, 64, kernel_size=(1,), stride=(1,))
      (1): BatchNorm1d(64, eps=1e-05, momentum=0.1, affine=True, track_running_stats=True)
    )
    (theta): Conv1d(64, 32, kernel_size=(1,), stride=(1,))
    (phi): Conv1d(64, 32, kernel_size=(1,), stride=(1,))
  )
  (SGCAM_2g): SGCAM(
    (g): Conv1d(64, 32, kernel_size=(1,), stride=(1,))
    (W): Sequential(
      (0): Conv1d(32, 64, kernel_size=(1,), stride=(1,))
      (1): BatchNorm1d(64, eps=1e-05, momentum=0.1, affine=True, track_running_stats=True)
    )
    (theta): Conv1d(64, 32, kernel_size=(1,), stride=(1,))
    (phi): Conv1d(64, 32, kernel_size=(1,), stride=(1,))
  )
)
Namespace(exp_name='GDANet', batch_size=16, test_batch_size=8, epochs=42, use_sgd=False, scheduler='step', step=40, lr=0.003, momentum=0.9, no_cuda=False, manual_seed=1, eval=False, num_points=2880, resume=False, model_type='insiou')
Using GPU
GDANet(
  (bn1): BatchNorm2d(64, eps=1e-05, momentum=0.1, affine=True, track_running_stats=True)
  (bn11): BatchNorm2d(64, eps=1e-05, momentum=0.1, affine=True, track_running_stats=True)
  (bn12): BatchNorm1d(64, eps=1e-05, momentum=0.1, affine=True, track_running_stats=True)
  (bn2): BatchNorm2d(64, eps=1e-05, momentum=0.1, affine=True, track_running_stats=True)
  (bn21): BatchNorm2d(64, eps=1e-05, momentum=0.1, affine=True, track_running_stats=True)
  (bn22): BatchNorm1d(64, eps=1e-05, momentum=0.1, affine=True, track_running_stats=True)
  (bn3): BatchNorm2d(128, eps=1e-05, momentum=0.1, affine=True, track_running_stats=True)
  (bn31): BatchNorm2d(128, eps=1e-05, momentum=0.1, affine=True, track_running_stats=True)
  (bn32): BatchNorm1d(128, eps=1e-05, momentum=0.1, affine=True, track_running_stats=True)
  (bn4): BatchNorm1d(512, eps=1e-05, momentum=0.1, affine=True, track_running_stats=True)
  (bnc): BatchNorm1d(64, eps=1e-05, momentum=0.1, affine=True, track_running_stats=True)
  (bn5): BatchNorm1d(256, eps=1e-05, momentum=0.1, affine=True, track_running_stats=True)
  (bn6): BatchNorm1d(256, eps=1e-05, momentum=0.1, affine=True, track_running_stats=True)
  (bn7): BatchNorm1d(128, eps=1e-05, momentum=0.1, affine=True, track_running_stats=True)
  (conv1): Sequential(
    (0): Conv2d(9, 64, kernel_size=(1, 1), stride=(1, 1))
    (1): BatchNorm2d(64, eps=1e-05, momentum=0.1, affine=True, track_running_stats=True)
  )
  (conv11): Sequential(
    (0): Conv2d(64, 64, kernel_size=(1, 1), stride=(1, 1))
    (1): BatchNorm2d(64, eps=1e-05, momentum=0.1, affine=True, track_running_stats=True)
  )
  (conv12): Sequential(
    (0): Conv1d(128, 64, kernel_size=(1,), stride=(1,))
    (1): BatchNorm1d(64, eps=1e-05, momentum=0.1, affine=True, track_running_stats=True)
  )
  (conv2): Sequential(
    (0): Conv2d(134, 64, kernel_size=(1, 1), stride=(1, 1))
    (1): BatchNorm2d(64, eps=1e-05, momentum=0.1, affine=True, track_running_stats=True)
  )
  (conv21): Sequential(
    (0): Conv2d(64, 64, kernel_size=(1, 1), stride=(1, 1))
    (1): BatchNorm2d(64, eps=1e-05, momentum=0.1, affine=True, track_running_stats=True)
  )
  (conv22): Sequential(
    (0): Conv1d(128, 64, kernel_size=(1,), stride=(1,))
    (1): BatchNorm1d(64, eps=1e-05, momentum=0.1, affine=True, track_running_stats=True)
  )
  (conv3): Sequential(
    (0): Conv2d(262, 128, kernel_size=(1, 1), stride=(1, 1))
    (1): BatchNorm2d(128, eps=1e-05, momentum=0.1, affine=True, track_running_stats=True)
  )
  (conv31): Sequential(
    (0): Conv2d(128, 128, kernel_size=(1, 1), stride=(1, 1))
    (1): BatchNorm2d(128, eps=1e-05, momentum=0.1, affine=True, track_running_stats=True)
  )
  (conv32): Sequential(
    (0): Conv1d(128, 128, kernel_size=(1,), stride=(1,))
    (1): BatchNorm1d(128, eps=1e-05, momentum=0.1, affine=True, track_running_stats=True)
  )
  (conv4): Sequential(
    (0): Conv1d(256, 512, kernel_size=(1,), stride=(1,))
    (1): BatchNorm1d(512, eps=1e-05, momentum=0.1, affine=True, track_running_stats=True)
  )
  (convc): Sequential(
    (0): Conv1d(16, 64, kernel_size=(1,), stride=(1,))
    (1): BatchNorm1d(64, eps=1e-05, momentum=0.1, affine=True, track_running_stats=True)
  )
  (conv5): Sequential(
    (0): Conv1d(832, 256, kernel_size=(1,), stride=(1,))
    (1): BatchNorm1d(256, eps=1e-05, momentum=0.1, affine=True, track_running_stats=True)
  )
  (dp1): Dropout(p=0.4, inplace=False)
  (conv6): Sequential(
    (0): Conv1d(256, 256, kernel_size=(1,), stride=(1,))
    (1): BatchNorm1d(256, eps=1e-05, momentum=0.1, affine=True, track_running_stats=True)
  )
  (dp2): Dropout(p=0.4, inplace=False)
  (conv7): Sequential(
    (0): Conv1d(256, 128, kernel_size=(1,), stride=(1,))
    (1): BatchNorm1d(128, eps=1e-05, momentum=0.1, affine=True, track_running_stats=True)
  )
  (conv8): Conv1d(128, 6, kernel_size=(1,), stride=(1,))
  (SGCAM_1s): SGCAM(
    (g): Conv1d(64, 32, kernel_size=(1,), stride=(1,))
    (W): Sequential(
      (0): Conv1d(32, 64, kernel_size=(1,), stride=(1,))
      (1): BatchNorm1d(64, eps=1e-05, momentum=0.1, affine=True, track_running_stats=True)
    )
    (theta): Conv1d(64, 32, kernel_size=(1,), stride=(1,))
    (phi): Conv1d(64, 32, kernel_size=(1,), stride=(1,))
  )
  (SGCAM_1g): SGCAM(
    (g): Conv1d(64, 32, kernel_size=(1,), stride=(1,))
    (W): Sequential(
      (0): Conv1d(32, 64, kernel_size=(1,), stride=(1,))
      (1): BatchNorm1d(64, eps=1e-05, momentum=0.1, affine=True, track_running_stats=True)
    )
    (theta): Conv1d(64, 32, kernel_size=(1,), stride=(1,))
    (phi): Conv1d(64, 32, kernel_size=(1,), stride=(1,))
  )
  (SGCAM_2s): SGCAM(
    (g): Conv1d(64, 32, kernel_size=(1,), stride=(1,))
    (W): Sequential(
      (0): Conv1d(32, 64, kernel_size=(1,), stride=(1,))
      (1): BatchNorm1d(64, eps=1e-05, momentum=0.1, affine=True, track_running_stats=True)
    )
    (theta): Conv1d(64, 32, kernel_size=(1,), stride=(1,))
    (phi): Conv1d(64, 32, kernel_size=(1,), stride=(1,))
  )
  (SGCAM_2g): SGCAM(
    (g): Conv1d(64, 32, kernel_size=(1,), stride=(1,))
    (W): Sequential(
      (0): Conv1d(32, 64, kernel_size=(1,), stride=(1,))
      (1): BatchNorm1d(64, eps=1e-05, momentum=0.1, affine=True, track_running_stats=True)
    )
    (theta): Conv1d(64, 32, kernel_size=(1,), stride=(1,))
    (phi): Conv1d(64, 32, kernel_size=(1,), stride=(1,))
  )
)
former1 iou: 0.5379552
former2 iou: 0.41791484
former3 iou: 0.45367575
former4 iou: 0.5939793
former5 iou: 0.40661648
former6 iou: 0.42735013
former7 iou: 0.49780512
former8 iou: 0.4578282
former9 iou: 0.4544817
former10 iou: 0.43844104
former11 iou: 0.370141
former12 iou: 0.48277462
former13 iou: 0.39011586
former14 iou: 0.4516994
former15 iou: 0.43948707
…
former7 iou: 0.9654302
former8 iou: 0.9566032
former9 iou: 0.94133496
former10 iou: 0.9985263
former11 iou: 0.979653
former12 iou: 0.92706007
former13 iou: 0.9480629
former14 iou: 0.96301144
former15 iou: 0.99728584
former16 iou: 0.96189046
Max class iou:0.96503
Final Max Acc:0.97994
Final Max instance iou:0.96592
Final Max class iou:0.96503
Namespace(exp_name='GDANet', batch_size=16, test_batch_size=8, epochs=42, use_sgd=False, scheduler='step', step=40, lr=0.003, momentum=0.9, no_cuda=False, manual_seed=1, eval=False, num_points=2880, resume=True, model_type='insiou')
Using GPU
GDANet(
  (bn1): BatchNorm2d(64, eps=1e-05, momentum=0.1, affine=True, track_running_stats=True)
  (bn11): BatchNorm2d(64, eps=1e-05, momentum=0.1, affine=True, track_running_stats=True)
  (bn12): BatchNorm1d(64, eps=1e-05, momentum=0.1, affine=True, track_running_stats=True)
  (bn2): BatchNorm2d(64, eps=1e-05, momentum=0.1, affine=True, track_running_stats=True)
  (bn21): BatchNorm2d(64, eps=1e-05, momentum=0.1, affine=True, track_running_stats=True)
  (bn22): BatchNorm1d(64, eps=1e-05, momentum=0.1, affine=True, track_running_stats=True)
  (bn3): BatchNorm2d(128, eps=1e-05, momentum=0.1, affine=True, track_running_stats=True)
  (bn31): BatchNorm2d(128, eps=1e-05, momentum=0.1, affine=True, track_running_stats=True)
  (bn32): BatchNorm1d(128, eps=1e-05, momentum=0.1, affine=True, track_running_stats=True)
  (bn4): BatchNorm1d(512, eps=1e-05, momentum=0.1, affine=True, track_running_stats=True)
  (bnc): BatchNorm1d(64, eps=1e-05, momentum=0.1, affine=True, track_running_stats=True)
  (bn5): BatchNorm1d(256, eps=1e-05, momentum=0.1, affine=True, track_running_stats=True)
  (bn6): BatchNorm1d(256, eps=1e-05, momentum=0.1, affine=True, track_running_stats=True)
  (bn7): BatchNorm1d(128, eps=1e-05, momentum=0.1, affine=True, track_running_stats=True)
  (conv1): Sequential(
    (0): Conv2d(9, 64, kernel_size=(1, 1), stride=(1, 1))
    (1): BatchNorm2d(64, eps=1e-05, momentum=0.1, affine=True, track_running_stats=True)
  )
  (conv11): Sequential(
    (0): Conv2d(64, 64, kernel_size=(1, 1), stride=(1, 1))
    (1): BatchNorm2d(64, eps=1e-05, momentum=0.1, affine=True, track_running_stats=True)
  )
  (conv12): Sequential(
    (0): Conv1d(128, 64, kernel_size=(1,), stride=(1,))
    (1): BatchNorm1d(64, eps=1e-05, momentum=0.1, affine=True, track_running_stats=True)
  )
  (conv2): Sequential(
    (0): Conv2d(134, 64, kernel_size=(1, 1), stride=(1, 1))
    (1): BatchNorm2d(64, eps=1e-05, momentum=0.1, affine=True, track_running_stats=True)
  )
  (conv21): Sequential(
    (0): Conv2d(64, 64, kernel_size=(1, 1), stride=(1, 1))
    (1): BatchNorm2d(64, eps=1e-05, momentum=0.1, affine=True, track_running_stats=True)
  )
  (conv22): Sequential(
    (0): Conv1d(128, 64, kernel_size=(1,), stride=(1,))
    (1): BatchNorm1d(64, eps=1e-05, momentum=0.1, affine=True, track_running_stats=True)
  )
  (conv3): Sequential(
    (0): Conv2d(262, 128, kernel_size=(1, 1), stride=(1, 1))
    (1): BatchNorm2d(128, eps=1e-05, momentum=0.1, affine=True, track_running_stats=True)
  )
  (conv31): Sequential(
    (0): Conv2d(128, 128, kernel_size=(1, 1), stride=(1, 1))
    (1): BatchNorm2d(128, eps=1e-05, momentum=0.1, affine=True, track_running_stats=True)
  )
  (conv32): Sequential(
    (0): Conv1d(128, 128, kernel_size=(1,), stride=(1,))
    (1): BatchNorm1d(128, eps=1e-05, momentum=0.1, affine=True, track_running_stats=True)
  )
  (conv4): Sequential(
    (0): Conv1d(256, 512, kernel_size=(1,), stride=(1,))
    (1): BatchNorm1d(512, eps=1e-05, momentum=0.1, affine=True, track_running_stats=True)
  )
  (convc): Sequential(
    (0): Conv1d(16, 64, kernel_size=(1,), stride=(1,))
    (1): BatchNorm1d(64, eps=1e-05, momentum=0.1, affine=True, track_running_stats=True)
  )
  (conv5): Sequential(
    (0): Conv1d(832, 256, kernel_size=(1,), stride=(1,))
    (1): BatchNorm1d(256, eps=1e-05, momentum=0.1, affine=True, track_running_stats=True)
  )
  (dp1): Dropout(p=0.4, inplace=False)
  (conv6): Sequential(
    (0): Conv1d(256, 256, kernel_size=(1,), stride=(1,))
    (1): BatchNorm1d(256, eps=1e-05, momentum=0.1, affine=True, track_running_stats=True)
  )
  (dp2): Dropout(p=0.4, inplace=False)
  (conv7): Sequential(
    (0): Conv1d(256, 128, kernel_size=(1,), stride=(1,))
    (1): BatchNorm1d(128, eps=1e-05, momentum=0.1, affine=True, track_running_stats=True)
  )
  (conv8): Conv1d(128, 6, kernel_size=(1,), stride=(1,))
  (SGCAM_1s): SGCAM(
    (g): Conv1d(64, 32, kernel_size=(1,), stride=(1,))
    (W): Sequential(
      (0): Conv1d(32, 64, kernel_size=(1,), stride=(1,))
      (1): BatchNorm1d(64, eps=1e-05, momentum=0.1, affine=True, track_running_stats=True)
    )
    (theta): Conv1d(64, 32, kernel_size=(1,), stride=(1,))
    (phi): Conv1d(64, 32, kernel_size=(1,), stride=(1,))
  )
  (SGCAM_1g): SGCAM(
    (g): Conv1d(64, 32, kernel_size=(1,), stride=(1,))
    (W): Sequential(
      (0): Conv1d(32, 64, kernel_size=(1,), stride=(1,))
      (1): BatchNorm1d(64, eps=1e-05, momentum=0.1, affine=True, track_running_stats=True)
    )
    (theta): Conv1d(64, 32, kernel_size=(1,), stride=(1,))
    (phi): Conv1d(64, 32, kernel_size=(1,), stride=(1,))
  )
  (SGCAM_2s): SGCAM(
    (g): Conv1d(64, 32, kernel_size=(1,), stride=(1,))
    (W): Sequential(
      (0): Conv1d(32, 64, kernel_size=(1,), stride=(1,))
      (1): BatchNorm1d(64, eps=1e-05, momentum=0.1, affine=True, track_running_stats=True)
    )
    (theta): Conv1d(64, 32, kernel_size=(1,), stride=(1,))
    (phi): Conv1d(64, 32, kernel_size=(1,), stride=(1,))
  )
  (SGCAM_2g): SGCAM(
    (g): Conv1d(64, 32, kernel_size=(1,), stride=(1,))
    (W): Sequential(
      (0): Conv1d(32, 64, kernel_size=(1,), stride=(1,))
      (1): BatchNorm1d(64, eps=1e-05, momentum=0.1, affine=True, track_running_stats=True)
    )
    (theta): Conv1d(64, 32, kernel_size=(1,), stride=(1,))
    (phi): Conv1d(64, 32, kernel_size=(1,), stride=(1,))
  )
)
former1 iou: 0.9356444
former2 iou: 0.915015
former3 iou: 0.9604281
former4 iou: 0.92150396
former5 iou: 0.8857254
former6 iou: 0.8933976
former7 iou: 0.87191224
former8 iou: 0.93764603
former9 iou: 0.95020175
former10 iou: 0.9873823
former11 iou: 0.99027693
former12 iou: 0.9070345
former13 iou: 0.9356477
former14 iou: 0.8853413
former15 iou: 0.9240468
former16 iou: 0.9837871
…
